W1.npy (npy, 5248 bytes, 1 tensors)

array f8 [10, 64]
0.05236027657708271 -0.00780461381197455 -0.12200920094200957 -0.01161653047880646 0.00776937612872234 -0.11148267839287444 -0.12945509885478015 0.09689344571240563
-0.009639223642136343 -0.12132890546673922 0.5005826859211606 -0.01007738021791636 -0.01722081522977221 0.015021692534084115 -0.07233674170702531 -0.00934053041306526
-0.6375702029383201 -0.03346246578476259 0.1715218157642548 0.02049171019017273 -0.07038172265316478 0.0005311663486396232 0.11287446540106978 0.009340245946021408
-0.01398237474875621 -0.6659503985959672 -0.29326269767821855 0.0152270629681149 -0.22967446771310449 -0.014129627244553921 0.28539230754014344 -0.008714127999948565
-0.00352807123509052 0.01594531934747598 -0.7583191856849049 0.0015098564947892109 -0.2210792181235869 -0.010495383667866393 -0.0002317991495400177 -0.008067569158957243
-0.03906934361805845 0.7780378333412664 -0.8274213369424146 -0.7679962339998344 -0.12899514844810325 0.8183642513434791 0.1458983227636065 -0.6109632922441646
-0.01481551047052186 -0.041829798708615876 0.018125286448929284 -0.08992178318273192 -0.1992419421131371 0.0007578721910411267 -0.09032434656295144 0.00701991202823455
-0.43128982059120746 -0.26645428339486993 -0.0781156008889754 0.02525676143097574 -0.0006348427904288141 -0.013921016194450601 0.03412108533914475 0.019269470338682072
-0.12688452839856917 0.003202251210157443 -0.2042431505969092 -0.014701852989517136 0.0024620050027655185 -0.21298330019117226 0.015591227650517986 -0.43905831007484397
0.00476912199030944 -0.06387976612812749 -0.22162209538195296 0.011997579422777854 -0.21068529026747174 -0.012696067130585935 -0.3041003645948952 0.006603130130070394
1.5430661480027876 -0.12050739240564776 -0.3087322084935515 -0.046414193699418814 -0.17404375201933456 -0.006658586161914697 -0.17369633405861065 0.009155445085699064
0.015072172621859769 -0.3297502405043595 0.04253693814172681 -0.009992957622346822 0.12586040130243678 0.011375296300482106 -0.14138578714926975 0.016120023039070484
0.01130330959361369 -0.014788957837900123 0.5332493402899471 -0.017509786117598382 -0.17765991183930613 -0.11079376122135158 0.01603943854488243 0.0010100670288331745
-0.1656449556907835 -0.3793057218010826 0.07947679757273629 -0.27949930123150946 0.1234821758296486 -0.3039769162204423 -0.2278645270388078 -0.26159466795234443
-0.01504886771760553 0.10787221799323346 0.0009998174606506442 -0.1205774304076648 -0.3451482294273373 -0.01768946684104404 -0.2849346634078711 -0.012660380405815066
-0.2707555766687209 -0.0017293350108253986 -0.027205632773999233 0.05616146139399255 0.007624771835076685 -0.00660439468691558 -0.07434069483848474 -0.0009543669936743502
-0.1634842911611385 0.0056819777934689055 -0.17212252768756428 -0.012596868157593269 -0.012771578556111305 -0.2873756429664402 0.590503024896215 0.6050441967347004
-0.006854973426195262 0.14941762319164695 -0.07043472796185987 0.015613540734294442 0.2698616487541252 0.004792813032342242 0.016434751596729594 -0.01025780083655287
0.16295374563393056 0.021513188118671308 -0.013343812907722545 -0.05391726756547152 0.30034012876311744 -0.017540814178782872 0.12513283642236078 -0.003472329426341115
0.0016725503678682292 0.08234809374823376 -0.7971849268761624 -0.009054246261652823 0.7786375865071714 -0.013068664454400303 -0.3869077268121337 -0.0016075272158288937
-0.017433138096574534 0.007527473424979405 0.5894874403031521 -0.00750199060534897 -0.09877259375664585 0.04772300856367635 0.013778252788699236 0.0031769554475509316
0.045908098477894406 0.02749456384530357 -0.058401336980026065 0.09396879213128316 -0.11262318025152328 0.38965320840224055 0.1605616650725074 0.3664142238795167
-0.013802807584685965 -0.06884297090487701 0.008096425462400008 0.6333118546433532 -0.18792386924278226 0.017437067477988736 -0.16933763827896184 -0.022909333902769013
-0.25181502265102107 0.44990927386260543 0.10655020462622436 0.06099865732512608 -0.01512556778506489 0.014065119768552965 0.5425635612454499 0.011263023317021741
0.18588793496745348 0.013573696944129259 -0.14470072177733226 -0.008729707727982504 0.007263114804781041 -0.05165560410342126 0.989746589562467 0.07985335933408033
0.007102688818424661 -0.026984277384552068 -0.25319898352363734 0.006680914397509974 0.09122891177979311 0.008358028392329164 -0.038170186541317624 -0.010821145753829774
-0.6542324472057487 0.025718743880656023 -0.13165225271790446 -0.09498520729370089 0.22688979255024616 0.01627002704667227 -0.49627193473599646 0.00562049187367244
0.003189151855636191 -0.42617747651043325 0.5891064875343079 0.014170867027519083 0.13131812886691574 0.018224851280036047 0.0666222721133285 -0.002009637856754224
-0.0037889698071567742 -0.01573991241484147 0.2348609051526708 -0.014698482222274897 0.32143504814738855 -0.12694706272299636 -0.012154045017314746 0.004133579610024728
-0.03704830748836167 -0.13969205518565112 0.0474086957671238 0.20290488192230924 0.08243635283749434 -0.2762905108713151 -0.15560245319440633 0.763631518324686
-0.013922816860799388 -0.05732101702774066 0.008947031451050736 -0.18791937379807255 -0.18363871863250725 0.018310552182475577 0.11892037767179313 -0.00987697588200095
-0.0824631519132686 0.3370354430061762 0.034650892664692276 0.08845484469225498 -0.01044454014377058 0.0020971811182512 -0.11958286011460115 0.013931606058479548
00000000: ba23 0457 f7ce aa3f 3613 4911 bbf7 7fbf
00000010: e465 dbb7 fe3b bfbf 64e5 fe53 68ca 87bf
00000020: 2887 2106 c8d2 7f3f e393 c4f9 208a bcbf
00000030: 75dc f013 fc91 c0bf 9612 8844 02ce b83f
00000040: 0e19 6ab2 babd 83bf ce03 0a41 690f bfbf
00000050: 0a35 1ffb c504 e03f 77f3 b813 73a3 84bf
00000060: 92aa e358 55a2 91bf b1cf 5071 b1c3 8e3f
00000070: b04d ee23 a984 b2bf bf15 36c5 2021 83bf
00000080: fcc5 50a0 f966 e4bf 59ce 6008 fe21 a1bf
00000090: 8606 a146 6df4 c53f 8771 6c64 c7fb 943f
000000a0: 680f 085d 8904 b2bf 3b69 4e0c bf67 413f
000000b0: dd79 7349 57e5 bc3f 6681 ff96 fa20 833f
000000c0: 8d6e 2192 caa2 8cbf 7e4a d735 774f e5bf
000000d0: 2e8a eae7 d0c4 d2bf ac8e b2cb 5d2f 8f3f
000000e0: 33e9 c613 f965 cdbf 8638 5c77 feef 8cbf
000000f0: 908d da18 de43 d23f 95f9 2e76 b6d8 81bf
00000100: 7754 53d2 e6e6 6cbf 199b 7c44 f853 903f
00000110: c745 ce98 2644 e8bf 74ce 1211 ccbc 583f
00000120: 5541 d5e5 524c ccbf bd50 e68c 9a7e 85bf
00000130: 17a7 7488 e361 2ebf c648 91cd ba85 80bf
00000140: 3d43 3ba2 e500 a4bf c70b 2899 afe5 e83f
00000150: c0c4 c54f 3c7a eabf dd5f 8fd6 6c93 e8bf
00000160: bdb0 f6bb e982 c0bf 678b f739 0a30 ea3f
00000170: f5cc 67d6 cbac c23f 7ed8 e7e3 028d e3bf
00000180: f734 8e27 9857 8ebf 2a4e e722 b76a a5bf
00000190: 5b79 1d62 6f8f 923f 20c4 f72d 1d05 b7bf
000001a0: 9108 af8c c280 c9bf 3d7a 3523 7ed5 483f
000001b0: fa3b 8512 7f1f b7bf c822 5049 e9c0 7c3f
000001c0: 485d a29e 409a dbbf 63d8 4344 960d d1bf
000001d0: 4023 204f 62ff b3bf f749 6591 e8dc 993f
000001e0: 6d70 f182 72cd 44bf 2f0d 422a 9f82 8cbf
000001f0: 2674 45a3 5178 a13f dadc a943 60bb 933f
00000200: ea8c eb91 c03d c0bf 8f17 1487 9b3b 6a3f
00000210: 0374 1fba a324 cabf 989e 3e4e 011c 8ebf
00000220: 2cde 05df 322b 643f 6f26 756a 0943 cbbf
00000230: b060 e826 4bee 8f3f 2cbe b306 8819 dcbf
00000240: 080a aa6f c988 733f d67c 65a2 6c5a b0bf
00000250: ff44 dee1 1c5e ccbf 2315 04da 2f92 883f
00000260: 3439 b94f bcf7 cabf cfd4 e848 6500 8abf
00000270: 88c0 2860 6176 d3bf ecaf 5b3f e20b 7b3f
00000280: 65c9 1321 66b0 f83f 96f9 4e8d 92d9 bebf
00000290: f3e7 acbc 44c2 d3bf 93b7 04e8 99c3 a7bf
000002a0: b182 7fcf 1047 c6bf 5f2d d99c 0846 7bbf
000002b0: e1c0 1b75 ae3b c6bf ac86 c909 17c0 823f
000002c0: b9a7 ecc3 28de 8e3f 741e b4c0 a01a d5bf
000002d0: 56a2 61cc 66c7 a53f 2725 6d11 3077 84bf
000002e0: 9b4a ba91 311c c03f 1938 be6c ee4b 873f
000002f0: 3c71 f6f1 ed18 c2bf 69e6 0d6f c481 903f
00000300: fc3d 5488 3026 873f 7cae 0b52 ac49 8ebf
00000310: b115 a5eb 6010 e13f 4aae f0da 15ee 91bf
00000320: f27c 945b 8fbd c6bf ebe9 0bdd fa5c bcbf
00000330: 1f63 fc7f a46c 903f 3c41 c236 878c 503f
00000340: 773a b899 da33 c5bf 9290 9481 8b46 d8bf
00000350: 789f 5d66 9758 b43f f0d3 8209 51e3 d1bf
00000360: 78c7 d322 879c bf3f 82f7 7998 5b74 d3bf
00000370: 896c c631 aa2a cdbf 7c73 ea8f f7bd d0bf
00000380: 13f6 82d5 f0d1 8ebf 328c 6d80 839d bb3f
00000390: 07e3 e8d2 8961 503f 3294 3c98 29de bebf
000003a0: fb69 6a99 e816 d6bf 2c8b 4306 301d 92bf
000003b0: 4859 3599 5e3c d2bf bb16 627e afed 89bf
000003c0: 1d1d c032 0f54 d1bf 1240 2e54 5b55 5cbf
000003d0: 6010 201c cbdb 9bbf eb2c f7ef 31c1 ac3f
000003e0: 69e4 bc1a 273b 7f3f b1f8 0ab3 350d 7bbf
000003f0: 7adc 17e5 fd07 b3bf 08f4 5a83 cf45 4fbf
00000400: c831 f9a1 0ded c4bf fff1 ca4c fc45 773f
00000410: 3356 a969 1c08 c6bf 28ae 2606 63cc 89bf
00000420: f2fd bb41 fc27 8abf 234d 0dcf 5c64 d2bf
00000430: 41c9 8399 66e5 e23f 2c86 b3a5 855c e33f
00000440: a227 e3ea f513 7cbf 33ef 86de 1d20 c33f
00000450: e64d 19a5 0208 b2bf 41e3 a0f6 fdf9 8f3f
00000460: a8fd f5ca 6945 d13f fa10 adf3 a0a1 733f
00000470: 84db 8082 45d4 903f 229a f9b8 0a02 85bf
00000480: 6214 2118 abdb c43f df0b 9c9d 8d07 963f
00000490: 6f44 5740 0054 8bbf 9c4a c449 0b9b abbf
000004a0: 7ab2 adcd c538 d33f 6aeb f81c 38f6 91bf
000004b0: 2a7d 0b50 5a04 c03f e862 77aa 0072 6cbf
000004c0: f9c6 6048 2f67 5b3f 045f 89c1 c314 b53f
000004d0: 3a83 b9f6 8982 e9bf 2e7a ab5c 088b 82bf
000004e0: 6f82 2f5f 99ea e83f a0ed 7873 bec3 8abf
000004f0: 8c94 4ea0 18c3 d8bf bf4b 7134 7556 5abf
00000500: de3b f717 fed9 91bf 8fa2 e8c2 20d5 7e3f
00000510: 3f27 b0c3 14dd e23f 95c2 e044 68ba 7ebf
00000520: fa06 ed23 2949 b9bf 7a6e 1872 266f a83f
00000530: 30e5 fcc8 c537 8c3f 1646 f0f7 8e06 6a3f
00000540: a90f 2b2b 4481 a73f de29 22f2 8827 9c3f
00000550: 0568 beb0 c7e6 adbf 6769 0cb9 560e b83f
00000560: 87a9 f36b dfd4 bcbf 439f b702 14f0 d83f
00000570: 1626 3dde 488d c43f 0483 16a5 5473 d73f
00000580: 2f89 5a79 a544 8cbf a08e 9864 b19f b1bf
00000590: d6a4 9ad4 db94 803f 0698 fb38 1744 e43f
000005a0: 408c 44ac e30d c8bf 1174 39ca 05db 913f
000005b0: 23ec 3111 dbac c5bf 33ca 8a5f 8b75 97bf
000005c0: 5e5e bbc1 bc1d d0bf 410c 5a44 50cb dc3f
000005d0: 2272 40cc df46 bb3f 4c66 9f4c 373b af3f
000005e0: b524 c357 27fa 8ebf 44b0 5c6b 2cce 8c3f
000005f0: b39d f141 ae5c e13f 29d2 6766 1111 873f
00000600: f4fd b304 2dcb c73f 49d2 afc3 86cc 8b3f
00000610: dbe0 dea1 8d85 c2bf ac05 9089 e1e0 81bf
00000620: 07a9 db88 edbf 7d3f bb02 8f74 9a72 aabf
00000630: 53f2 2f0a 01ac ef3f e8cb d00e 4571 b43f
00000640: e451 0583 b517 7d3f b3ca 7d33 c4a1 9bbf
00000650: 6653 6782 6934 d0bf 1ad0 834d 725d 7b3f
00000660: c23b 8b28 c75a b73f d32e d594 031e 813f
00000670: 8c1d c1ed 0a8b a3bf cc8e f198 6529 86bf
00000680: 3362 97e2 78ef e4bf ec4b 72af 0356 9a3f
00000690: c71e ef23 fbd9 c0bf 4a23 ee56 f350 b8bf
000006a0: 0e57 6687 b90a cd3f 482f 4808 17a9 903f
000006b0: b347 675c ebc2 dfbf 1ac6 8e4c 8305 773f
000006c0: 277e 80dd 2220 6a3f 16dd f9e4 7d46 dbbf
000006d0: f647 3ad9 f5d9 e23f e565 8393 9d05 8d3f
000006e0: 047b 6d4e 08cf c03f 438d e310 89a9 923f
000006f0: 2076 e93f 280e b13f eed7 e31b 8476 60bf
00000700: 9e5a 08ad 0b0a 6fbf 122d 41a4 1f1e 90bf
00000710: cdad 5e11 ec0f ce3f 8b66 90e3 3c1a 8ebf
00000720: b232 e54e 6492 d43f cbf8 5b25 cd3f c0bf
00000730: 7667 e84e 38e4 88bf a5f5 d853 5fee 703f
00000740: a6bf 11ea fef7 a2bf 6946 44e4 6de1 c1bf
00000750: 7f4b bbdb f345 a83f 330c 0784 c9f8 c93f
00000760: 2445 707f 8c1a b53f abcb 1865 beae d1bf
00000770: 3bdc d2fb c7ea c3bf 7cc7 ac5d ab6f e83f
00000780: e4c1 aed8 9083 8cbf d6e4 032b 2e59 adbf
00000790: 1a10 d43b d252 823f c4ae 5ff6 bd0d c8bf
000007a0: d829 6739 7981 c7bf 4286 2e5b 00c0 923f
000007b0: 63a6 eddc 9071 be3f 6d2f 2c43 613a 84bf
000007c0: 91b2 971c 4e1c b5bf 457b 531b fd91 d53f
000007d0: 664b 8b05 c3bd a13f 2a41 2009 faa4 b63f
000007e0: afca b672 f263 85bf 1739 228a 1b2e 613f
000007f0: feb6 5a79 fb9c bebf 8524 3783 2c88 8c3f
